example/pinn/LevelSet/FeatureLines.pth (torch, 15809 bytes, 12 tensors)

_Solution__net.0.weight f4 [64, 3]
0	0x3d612ffe	0.05497741
1	0xbe1d5d1c	-0.1536755
2	0xbe5903f4	-0.21192914
3	0xbebd0764	-0.369197
4	0x3e5ae8f2	0.21377924
5	0xbeb8face	-0.3612885
6	0x3e86062d	0.26176587
7	0xbeb5e839	-0.35528734
8	0xbd2038ef	-0.039116796
9	0xbeb90dae	-0.3614325
10	0x3e4198b4	0.18905908
11	0xbf0b8a5f	-0.5450801
12	0x3ee52fe9	0.44763115
13	0xbdcb7247	-0.09933906
14	0x3f08b18b	0.5339591
15	0x3dff7205	0.124729194
16	0x3ea4aee3	0.32164678
17	0x3db2f95f	0.0873897
18	0x3bb44606	0.0055015115
19	0x3e175fde	0.14782664
20	0xbe4add5b	-0.19811003
21	0xbed2dc77	-0.41183826
22	0xbee2aa13	-0.4427038
23	0x3e4b3dde	0.19847819
24	0x3ea490fb	0.3214186
25	0xbe9e39ea	-0.3090356
26	0xbedd4376	-0.4321553
27	0xbe282849	-0.16421618
28	0x3ef5b403	0.479889
29	0xbed38fb9	-0.4132059
30	0x3cf650d5	0.03006784
31	0xbe49e5e9	-0.1971661
32	0x3ed61678	0.41814017
33	0x3ecefd96	0.40427846
34	0xbe5125c5	-0.20424564
35	0x3f1012ab	0.56278485
36	0xbcd53810	-0.02602771
37	0x3e5ad371	0.21369721
38	0xbeedfa28	-0.46479917
39	0xbe8ef8dd	-0.27924243
40	0xbe8125c2	-0.2522412
41	0x3e86d55c	0.26334655
42	0x3ea78401	0.32717898
43	0xbe967d46	-0.2939245
44	0x3ee4f85f	0.44720742
45	0xbeee91ec	-0.46595705
46	0x3e8e800b	0.27832064
47	0x3f205b51	0.6263934
48	0x3ca916ff	0.020640848
49	0xbe63c85b	-0.22244398
50	0x3ede1dfd	0.43382254
51	0x3e42cc5b	0.19023268
52	0x3eaba412	0.33523613
53	0x3e5ed04f	0.21759151
54	0x3e04be19	0.12963142
55	0xbea27c8b	-0.31735644
56	0xbf0f89d7	-0.560697
57	0x3b4da09a	0.0031376244
58	0x3e21a52d	0.15785666
59	0xbbb9f8f8	-0.0056754313
60	0xbb663017	-0.0035123879
61	0xbe2b09fb	-0.16703026
62	0x3e737de1	0.23778488
63	0xbbf7ff78	-0.007568296
64	0xbea6bf73	-0.3256794
65	0x3dd6b21f	0.10483193
66	0x3ec57eeb	0.38573393
67	0xbeee5a86	-0.4655344
68	0xbd0c686e	-0.03427928
69	0x3dc65b58	0.09685391
70	0x3ef341e6	0.47511214
71	0x3d35e9f0	0.044412553
72	0xbe9a76d4	-0.30168784
73	0xbd8263e4	-0.06366709
74	0x3e55d224	0.20880944
75	0x3edf207c	0.4357947
76	0x3ee0d914	0.43915617
77	0xbe87bf7e	-0.26513284
78	0xbe67ccb8	-0.22636688
79	0x3e62fecd	0.22167511
80	0xbeb732ce	-0.35780948
81	0xbe4d8a51	-0.20072295
82	0x3f1148c1	0.5675164
83	0xbef13de2	-0.47117525
84	0xbe8966a5	-0.26836124
85	0x3eaf0cbb	0.341894
86	0x3eb189f7	0.3467557
87	0xbed139ea	-0.40864497
88	0x3eb0209a	0.34399873
89	0xbed946d4	-0.4243685
90	0x3b61198c	0.0034347503
91	0xbe44d19e	-0.19220588
92	0x3e9e1786	0.30877322
93	0x3db90c70	0.090355754
94	0x3e489978	0.19589794
95	0x3d4a940b	0.04945759
96	0xbb2a6b59	-0.0026003926
97	0xbe3e9ca7	-0.18614446
98	0x3ddf3128	0.10898048
99	0x3b30ff07	0.0027007477
100	0x3e28d22f	0.16486429
101	0xbd07cdff	-0.033155438
102	0x3bb2d498	0.005457472
103	0x3e1d8774	0.15383703
104	0xbe5940c5	-0.21216114
105	0x3c37f373	0.011227476
106	0xbe44536a	-0.19172445
107	0x3ed659e5	0.4186546
108	0x3db2756f	0.08713805
109	0x3d916a17	0.07100313
110	0x3e44e87d	0.19229312
111	0xbe91e0a7	-0.2849171
112	0xbe529696	-0.20565256
113	0xbed8327d	-0.4222602
114	0xbeb0d119	-0.3453453
115	0xbdc9a046	-0.09845023
116	0xbe9d557b	-0.3072928
117	0x3bd1f9d4	0.0064079557
118	0x3e5fa3ba	0.218398
119	0xbe175837	-0.14779745
120	0xbeb56dc5	-0.3543531
121	0xbebde83d	-0.37091246
122	0x3aa24b15	0.0012381995
123	0xbc8df324	-0.017327853
124	0x3e41262d	0.18862219
125	0xbedec2fa	-0.4350813
126	0x3ae82e8f	0.0017714071
127	0x3e22d17f	0.15900229
128	0xbd8842e8	-0.06653386
129	0x3c4fea33	0.012690115
130	0xbe53ee2b	-0.20696323
131	0x3ecf69dd	0.40510455
132	0xbb8a8058	-0.0042267255
133	0xbeb16dbf	-0.34654042
134	0x3df33c4e	0.118767366
135	0xbd9a1385	-0.07523254
136	0xbea96f15	-0.3309256
137	0x3e9bf532	0.30460507
138	0xbc9bf536	-0.019037824
139	0x3e379cc1	0.1793089
140	0xbeb130db	-0.34607586
141	0xbe22889e	-0.15872428
142	0xbec1564e	-0.37761158
143	0x3eafeeb6	0.3436181
144	0x3a7afd8d	0.0009574525
145	0x3e345612	0.17610958
146	0xbe889237	-0.26674053
147	0xbe346bdc	-0.1761927
148	0x3e75fd6b	0.24022453
149	0x3e4d7c19	0.20066871
150	0x3b4215d5	0.0029615064
151	0x3e2eb5b6	0.17061505
152	0xbe7bd740	-0.2459383
153	0x3de8529a	0.1134388
154	0xbebe09cb	-0.37116846
155	0x3ec7725c	0.38954437
156	0x3b625637	0.0034536251
157	0x3e0a4b5a	0.13505307
158	0x3da9f16d	0.082980014
159	0xbec60837	-0.38678142
160	0x3eb2ef59	0.34948233
161	0x3f1db45e	0.61603343
162	0xbe583912	-0.2111552
163	0xbeec1004	-0.4610597
164	0x3e7a69bf	0.24454401
165	0xbe3d4217	-0.18482243
166	0xbdba57a1	-0.09098745
167	0xbeabce67	-0.3355591
168	0x3ec02fbb	0.37536415
169	0xbe7c3e75	-0.246332
170	0xbf00c41f	-0.5029926
171	0xbd9b378b	-0.07578953
172	0xbe8753cf	-0.26431128
173	0xbf00e86b	-0.5035464
174	0xbe8ee836	-0.27911538
175	0x3e479c20	0.1949315
176	0xbefa19c4	-0.48847783
177	0x3ececa2b	0.40388617
178	0x3f0ea595	0.5572141
179	0xbe467df8	-0.19383991
180	0x3d33a459	0.043857906
181	0x3e93b54b	0.28849253
182	0xbeb79d9f	-0.35862443
183	0x3c1080b2	0.008819746
184	0xbe478390	-0.19483781
185	0x3eb12da7	0.34605142
186	0x3c3ee499	0.011651182
187	0xbe8c5a7e	-0.2741279
188	0x3ee48cda	0.4463871
189	0xbbf3164c	-0.0074184295
190	0x3e9e14a3	0.3087512
191	0xbeee0a38	-0.4649217

_Solution__net.0.bias f4 [64]
0	0x3da2abf2	0.07942952
1	0x3e95e13c	0.29273403
2	0xbe8f3769	-0.27971962
3	0x3e5b1eb8	0.21398437
4	0xbed163fc	-0.40896595
5	0xbda39712	-0.07987799
6	0x3cf09297	0.029366774
7	0xbdb723a4	-0.08942345
8	0xbd3eaed4	-0.046553448
9	0xbe54197b	-0.20712845
10	0xbddd2acc	-0.107991785
11	0xbe66184f	-0.2247021
12	0x3dfb82b5	0.1228079
13	0xbcbad291	-0.022805484
14	0x3e030cb2	0.12797812
15	0xbcefc208	-0.029267326
16	0xbdcdfaf2	-0.1005763
17	0xbe65d7b7	-0.2244557
18	0x3ebd6ffc	0.369995
19	0x3d96e2a6	0.073674485
20	0xbd0f3ff8	-0.034973115
21	0x3dcfbfe2	0.101440206
22	0x3ee5756a	0.44816142
23	0xbe97a21d	-0.2961587
24	0x3e26020a	0.16211715
25	0x3dc08242	0.09399845
26	0xbdcc4713	-0.09974494
27	0xbe9dfb62	-0.30855852
28	0xbe956857	-0.29181167
29	0xbe7dcdd8	-0.24785554
30	0xbd6634f5	-0.056202848
31	0xbd72e5c9	-0.05930117
32	0x3cabca86	0.020970594
33	0x3d89f616	0.0673639
34	0x3cffc072	0.031219695
35	0xbdda0194	-0.10644832
36	0xbd4fc728	-0.05072704
37	0x3ec8eb92	0.39242226
38	0x3e4deed6	0.2011064
39	0xbc6fa14c	-0.0146258585
40	0xbb1d12c3	-0.0023967482
41	0x3df1b648	0.118023455
42	0x3d526a21	0.051370744
43	0xbdbd931a	-0.09256573
44	0x3ddcfa58	0.10789937
45	0xbcf35d87	-0.029707683
46	0x3dacb822	0.08433558
47	0xbd99f84a	-0.075180605
48	0x3d36d16e	0.04463332
49	0x3c9fe442	0.019518021
50	0x3d164f69	0.036696825
51	0x3d032c5c	0.032024726
52	0xbdab1a01	-0.08354569
53	0xbeaf23fe	-0.34207147
54	0x3d848e36	0.06472437
55	0x3e7298da	0.2369112
56	0xbcc8c3cb	-0.024507424
57	0x3ee02193	0.43775615
58	0x3e107d2d	0.14110251
59	0x3deaefc5	0.11471514
60	0x3d3df3f4	0.04637523
61	0xbd8d26ef	-0.068921916
62	0xbda53643	-0.0806699
63	0x3da092d8	0.07840508

_Solution__net.2.weight f4 [32, 64]
0	0x3ce62a9d	0.028096491
1	0x3ad18cad	0.0015987359
2	0x3cbdae38	0.023154363
3	0x3a7acc3f	0.0009567178
4	0xbce7f194	-0.028313436
5	0xbd41e6c4	-0.047339216
6	0xbcb04490	-0.021517068
7	0x3cd53c26	0.026029658
8	0x3d4b0156	0.04956182
9	0xbda8dde5	-0.08245448
10	0x3d002daa	0.03129355
11	0xbb2bbe39	-0.002620591
12	0xbd0ce7fc	-0.034400925
13	0x3c8ea74a	0.017413754
14	0x3d13da97	0.036097135
15	0xbd7dd25a	-0.061968185
16	0x3d16a2ae	0.036776237
17	0xbd719930	-0.05898398
18	0x3da0c111	0.078493245
19	0xbc8f1824	-0.017467566
20	0x3ccc56eb	0.02494379
21	0x3d73f70b	0.05956177
22	0x3da05efd	0.078306176
23	0xbdbc109d	-0.09182856
24	0x3bd5d1a6	0.006525236
25	0xbcab71b2	-0.020928238
26	0xbcf917df	-0.03040689
27	0xbdc0fde1	-0.094234236
28	0xbd9f163d	-0.077679135
29	0xbd3f88b7	-0.04676124
30	0x3cf5c23e	0.029999848
31	0xbcfdffd1	-0.031005772
32	0x3d0001bb	0.03125165
33	0xbca1194a	-0.01966538
34	0xbcb862d5	-0.022508064
35	0x3cf8b1eb	0.030358275
36	0xbc3fbac0	-0.0117022395
37	0x3d6e9a08	0.058252364
38	0x3ce5ca4c	0.028050564
39	0xbd13cd90	-0.03608471
40	0x3d064777	0.032782998
41	0xbcf32e2d	-0.029685104
42	0xbcad11f8	-0.021126732
43	0x3d09dccd	0.033657838
44	0x3d82076c	0.06349072
45	0x3d4c5232	0.049883075
46	0xbce6887b	-0.02814125
47	0x3d27c52a	0.040959515
48	0xbcd9ccf7	-0.026586993
49	0xbd125a10	-0.03573042
50	0xbcd1d33e	-0.025613423
51	0x3d81cd94	0.06338039
52	0xbcdc584a	-0.026897568
53	0xbdbdc26e	-0.092656
54	0x3d63417a	0.055482365
55	0x3cf4e46a	0.029894073
56	0x3d47044c	0.048588082
57	0x3d9129b3	0.070880316
58	0xbc1b05e7	-0.009461856
59	0xbd154dcb	-0.036451142
60	0xbd3640cb	-0.044495385
61	0x3d0038b8	0.03130409
62	0x3d41dc91	0.04732949
63	0xbd5bb008	-0.053634673
64	0xbd3d0da8	-0.0461556
65	0xbba25101	-0.004953504
66	0xbccaf783	-0.024776226
67	0xbc6287c6	-0.013826316
68	0x3ce3f503	0.027826792
69	0x3d2b707c	0.04185532
70	0xbc41b82e	-0.011823697
71	0xbcdf14c8	-0.027231589
72	0xbd9109b5	-0.070819296
73	0x3ccc4120	0.024933398
74	0x3d065ac6	0.032801412
75	0x3c1b9c69	0.00949774
76	0xbd174ee5	-0.036940474
77	0x3bd12603	0.006382705
78	0xbc5c5d74	-0.013450015
79	0x3db4734d	0.088110544
80	0x3d04605a	0.03231845
81	0x3d6cbba5	0.05779614
82	0xbdf4b6e6	-0.119489476
83	0x3c229c2c	0.00992493
84	0x3c718482	0.014741065
85	0xbcc5844a	-0.024110932
86	0xbda83c15	-0.08214585
87	0x3d716aaf	0.058939632
88	0x3ca8936a	0.020578105
89	0x3cb5d538	0.022196397
90	0x3b404c5e	0.0029342393
91	0x3d0c10de	0.034195773
92	0x3db4811d	0.08813689
93	0x3d0111be	0.03151106
94	0x3cabe570	0.020983428
95	0x3cc4a8a1	0.02400619
96	0xbbb4b4a5	-0.0055146986
97	0x3bfbeea6	0.007688361
98	0xbc54e8be	-0.012994943
99	0x3d0fac35	0.03507634
100	0x3cddabfe	0.027059551
101	0xbd7d257f	-0.061803337
102	0xbce90059	-0.028442549
103	0x3b614f9c	0.0034379726
104	0xbcface9e	-0.0306161
105	0xbd186361	-0.03720415
106	0x3b833bee	0.004004947
107	0x3cffaabf	0.031209348
108	0xbccc3574	-0.024927832
109	0x3bc634bc	0.006048767
110	0xbcdaad6c	-0.026694022
111	0x3b079d62	0.0020693173
112	0xbc8f75a6	-0.017512154
113	0x3d3db1f6	0.046312295
114	0xbc7c08e4	-0.015382979
115	0xbb0f08fa	-0.0021825419
116	0x3ce6713e	0.02813017
117	0x3dddf978	0.10838598
118	0xbca2a287	-0.01985289
119	0xbd39f33c	-0.045397982
120	0xbd9a3dc5	-0.07531313
121	0xbddabb71	-0.10680283
122	0xbc560e8d	-0.013064993
123	0x3d3d0d8b	0.046155494
124	0xbc90d1d8	-0.017678186
125	0x3ccdc63c	0.02511894
126	0x3ce4c5ae	0.027926292
127	0xbcd6f13e	-0.02623808
128	0xbdaef16b	-0.085421406
129	0x3d43f21d	0.04783832
130	0xbd70eb31	-0.058818046
131	0xbc068e88	-0.008212693
132	0xbc529dbf	-0.012854992
133	0xbdb01a84	-0.085988075
134	0xbdc5719a	-0.096408084
135	0x3ebc6744	0.36797535
136	0xbe6f35c9	-0.23360361
137	0xbdf6068c	-0.120129675
138	0x3e3a25f1	0.18178536
139	0xbcd531ce	-0.026024725
140	0xbe5836c8	-0.21114647
141	0x3e9957f2	0.2994991
142	0x3c5aa71d	0.013345507
143	0x3ed16717	0.40898964
144	0x3e4ad4f9	0.19807805
145	0xbd9a73af	-0.07541596
146	0xbe8b8929	-0.27253082
147	0xbd082688	-0.03323987
148	0x3de633b6	0.11240332
149	0x3dbc321c	0.09189245
150	0xbe56fef2	-0.20995691
151	0xbde31977	-0.110888414
152	0x3e72cdc2	0.23711303
153	0xbed2ba36	-0.41157693
154	0xbd0ca5e2	-0.034337886
155	0xbe0147e7	-0.12625085
156	0x3e8aaa2f	0.27082965
157	0x3d10668c	0.035254046
158	0x3e12663c	0.14296812
159	0xbd70ccbd	-0.058789004
160	0x3d90ae3f	0.07064485
161	0xbd32007d	-0.043457497
162	0xbdd137a5	-0.102156915
163	0x3e45657a	0.19276991
164	0x3c8ea953	0.017414724
165	0x3c08a6af	0.008340522
166	0x3d9ca554	0.07648721
167	0xbdbd3ab6	-0.09239714
168	0x3e7c95ce	0.24666521
169	0xbe4b1602	-0.19832614
170	0xbd59e174	-0.053193524
171	0x3e3e7fd5	0.18603452
172	0x3dc7f8d4	0.09764257
173	0x3e5885ce	0.21144792
174	0xbe1aa1e5	-0.1510082
175	0x3e9237c5	0.28558174
176	0xbdff8767	-0.12476998
177	0x3dfce5d9	0.123485275
178	0xbded691c	-0.11592314
179	0x3e09485c	0.13406509
180	0x3c396701	0.011316062
181	0x3eece386	0.46267337
182	0x3e96227c	0.29323184
183	0xbd05f664	-0.03270568
184	0xbe9e8d23	-0.30967054
185	0xbe13f4aa	-0.144488
186	0xbd13fe70	-0.036131322
187	0xbebeb3a0	-0.37246418
188	0xbe54cabe	-0.20780465
189	0x3e20adc2	0.15691283
190	0x3e59c39a	0.21266022
191	0xbe685f59	-0.22692622
192	0xbdd737f7	-0.10508721
193	0xbd16930a	-0.03676132
194	0x3b8d1489	0.0043054265
195	0xbd2c44a8	-0.042057663
196	0x3def74bd	0.11692188
197	0x3d6e1211	0.0581227
198	0xbd2fe00e	-0.042938285
199	0x3dc8b223	0.09799602
200	0xbe052926	-0.13003978
201	0x3dca4abc	0.09877536
202	0x3dc549fb	0.09633251
203	0x3ce6e08b	0.028183242
204	0xbde4747c	-0.1115503
205	0x3dd3b582	0.10337354
206	0xbd90da97	-0.07072943
207	0x3e5155f7	0.20442949
208	0x3dcd8be9	0.10036451
209	0x3df0cc66	0.11757736
210	0xbea0dd36	-0.3141877
211	0xbb849142	-0.0040456364
212	0x3d57e363	0.052707087
213	0xbd25fd75	-0.04052492
214	0xbe9d958e	-0.30778164
215	0x3e08953d	0.1333818
216	0x3d57dd25	0.052701134
217	0xbe01df01	-0.12682725
218	0x3d1519b4	0.036401466
219	0x3e18f775	0.14938147
220	0x3e8ccb44	0.2749883
221	0x3e10ade2	0.14128831
222	0x3d9025fc	0.07038495
223	0x3d048a4d	0.032358456
224	0xbad54b25	-0.0016273005
225	0xbc083a6f	-0.008314713
226	0xbd40b162	-0.047044165
227	0x3dd72df2	0.1050681
228	0x3d3388d2	0.043831654
229	0xbe2ff06d	-0.17181559
230	0xbd66fab1	-0.05639142
231	0xbbe37b65	-0.0069422
232	0x3cb25c25	0.021772454
233	0xbde0110e	-0.10940753
234	0xbc53a6ee	-0.012918217
235	0x3dc5185f	0.09623789
236	0xbd2a9bbc	-0.041652426
237	0x3d91ff08	0.071287215
238	0xbda4bb16	-0.08043496
239	0x3dd9fcf4	0.1064395
240	0xbd773b0f	-0.060359057
241	0x3dc57263	0.09640958
242	0xbd5fbbee	-0.054622583
243	0xbbd0bcac	-0.0063701477
244	0x3d80cae0	0.06288695
245	0x3ebbae4b	0.36656412
246	0x3d09faed	0.033686567
247	0xbddf5a19	-0.10905857
248	0xbe20baf7	-0.15696321
249	0xbe88c8f3	-0.26715812
250	0xbcf18ad5	-0.029485146
251	0xbda5b0ab	-0.08090337
252	0xbdba5bbb	-0.090995274
253	0x3da33aac	0.07970175
254	0x3dc7fc9e	0.0976498
255	0xbdcc807f	-0.09985446

_Solution__net.2.bias f4 [32]
0	0x3d4dc335	0.050234992
1	0xbcd031f3	-0.025414443
2	0xbe226157	-0.15857445
3	0xbe886094	-0.26636183
4	0x3d00ff1a	0.031493284
5	0xbdedcc79	-0.11611266
6	0xbefae9d5	-0.49006525
7	0xbe9981c7	-0.29981825
8	0x3d5ebc52	0.054378815
9	0xbd3d7f5d	-0.04626404
10	0xbe64dedf	-0.22350644
11	0xbe68b210	-0.22724175
12	0xbd8046dd	-0.06263516
13	0x3e5b6142	0.2142382
14	0xbd3b67e8	-0.04575339
15	0xbe960028	-0.29296994
16	0x3cd2529c	0.025674157
17	0xbdced53a	-0.100992635
18	0x3da4ecf9	0.080530114
19	0x3cb7a41b	0.022417119
20	0xbcf69c81	-0.030103924
21	0x3e921c62	0.2853728
22	0xbdde06e4	-0.10841158
23	0x3d61d827	0.05513778
24	0x3f030da5	0.51192695
25	0xbdb1ed02	-0.08687784
26	0xbddf2cd2	-0.10897221
27	0xbccec1a9	-0.025238829
28	0x3c0566e4	0.008142207
29	0x3cdb8422	0.026796404
30	0x3d662d29	0.05619541
31	0xbd0d583f	-0.034507986

_Solution__net.4.weight f4 [16, 32]
0	0xbd0b49f1	-0.034006063
1	0x3d50a7af	0.050941166
2	0x3f3ad4e5	0.729811
3	0x3e7636e1	0.24044372
4	0xbbb10525	-0.0054022246
5	0x3a98524a	0.0011621204
6	0x3e3c26d0	0.18374181
7	0xbcab8190	-0.020935804
8	0x3dd113f0	0.10208881
9	0x3c7e5edb	0.015525545
10	0xbcc43907	-0.023952974
11	0xbdbc9fa9	-0.0921014
12	0x3c2d30c4	0.010570709
13	0x3e2e8f6a	0.17046896
14	0x3c67011f	0.014099388
15	0x3d94b3dc	0.07260868
16	0xbe215527	-0.1575514
17	0xbd5f51ae	-0.054521255
18	0xbc5f02fb	-0.01361155
19	0xbd66068d	-0.05615859
20	0x3d2de44e	0.042454056
21	0xbf10cbcd	-0.56560975
22	0xbcb3602b	-0.021896442
23	0x3d4139c7	0.04717424
24	0xbe8e06ab	-0.27739462
25	0x3c9ded64	0.019278236
26	0x3bd8dfb7	0.0066184658
27	0x3d3b9e64	0.04580535
28	0xbd295d5b	-0.041348796
29	0x3ca0dd36	0.019636732
30	0xbc287000	-0.010280609
31	0x3d1af11e	0.037827604
32	0x3c834ee9	0.016028838
33	0x3e13da97	0.14438854
34	0x3d6c3c16	0.05767449
35	0x3e3cc17c	0.18433183
36	0x3d8ebd99	0.06969757
37	0x3e828ec2	0.2549954
38	0xbc567855	-0.013090213
39	0x3d77ebff	0.060527798
40	0xbeb26fe6	-0.34850997
41	0x3df44969	0.119280644
42	0x3e408d23	0.1880384
43	0x3e8cf635	0.2753159
44	0x3dc0ebdf	0.09419989
45	0x3f19b52c	0.6004207
46	0x3d71dfb7	0.05905124
47	0xbcad6677	-0.021167023
48	0x3e8ce770	0.27520323
49	0xbd7456fa	-0.05965326
50	0xbe3f6b42	-0.1869326
51	0xbe0ad526	-0.13557872
52	0x3e0579ee	0.13034794
53	0x3f40adb4	0.7526505
54	0x3e3787d7	0.17922913
55	0x3c61fad3	0.013792711
56	0x3f38ea3c	0.72232413
57	0x3e59c181	0.21265222
58	0x3e72d0df	0.2371249
59	0x3e098c37	0.13432394
60	0xbda35df8	-0.079769075
61	0x3b4260f6	0.0029659844
62	0xbdc6ecbc	-0.09713122
63	0x3e0331ca	0.12811962
64	0xbccfda44	-0.025372632
65	0x3e27b275	0.1637667
66	0x3eba1919	0.36347273
67	0x3e451613	0.19246702
68	0xbd0e8567	-0.03479519
69	0x3e4072c8	0.18793786
70	0xbe6cdf0f	-0.23131965
71	0xbdbd9705	-0.0925732
72	0x3c74cde3	0.014941665
73	0x3e2a4608	0.16628277
74	0xbc871f58	-0.016494438
75	0xbcb953c0	-0.022622943
76	0x3e0c5612	0.13704708
77	0x3ea0f2e4	0.3143531
78	0x3ddcfb47	0.10790115
79	0xbf494f98	-0.78637075
80	0x3e11738c	0.14204234
81	0x3eb2698c	0.3484615
82	0xbe49c396	-0.19703516
83	0xbe1d0219	-0.15332831
84	0x3e2301f2	0.15918711
85	0x3e0c7108	0.13714993
86	0x3e1a5387	0.15070926
87	0x3d2fa6c3	0.042883646
88	0x3db71520	0.08939576
89	0x3e536f95	0.20648034
90	0x3e4407b6	0.19143566
91	0x3e22b8bb	0.15890782
92	0xbde8bd02	-0.113641754
93	0x3d4dbe4d	0.050230313
94	0xbe10e11e	-0.14148375
95	0x3e257ba7	0.16160451
96	0x3cdecad2	0.027196322
97	0x3d1ce298	0.038302034
98	0x3d989058	0.074494064
99	0x3d198811	0.03748328
100	0x3df15b82	0.11785032
101	0x3d7c40a5	0.061585087
102	0xbe8cd707	-0.27507803
103	0xbd3b5531	-0.04573554
104	0x3c23ff06	0.010009533
105	0x3cfe2201	0.031022074
106	0xbd054cae	-0.03254383
107	0xbcf6b834	-0.030117132
108	0x3cae057c	0.02124285
109	0x3d7b842b	0.061405342
110	0x3c1a9b87	0.009436495
111	0x3e278fd6	0.16363463
112	0x3e811a4d	0.25215378
113	0xbdcd9e24	-0.100399286
114	0xbd418e59	-0.047254894
115	0xbd186ba1	-0.037212018
116	0x3d17d0d3	0.037064385
117	0xbe0a3aaf	-0.13498949
118	0x3c380e5f	0.011233895
119	0x3d4d5981	0.050134186
120	0x3dfe8ba5	0.12428979
121	0x3d5ca1f7	0.0538654
122	0x3d7a325f	0.061083194
123	0x3d19bb26	0.037531994
124	0xbd0ce6cd	-0.034399796
125	0x3df0e3b5	0.11762182
126	0xbcb4bfb5	-0.02206407
127	0x3d164c6c	0.036693975
128	0x3da2dca3	0.07952239
129	0xbd8194f5	-0.063272394
130	0x3e0a9bc9	0.1353599
131	0xbc711832	-0.014715241
132	0x3d93d534	0.072184
133	0xbe24ce67	-0.16094361
134	0x3c08e725	0.00835589
135	0xbe9e1bd9	-0.3088062
136	0x3eb9772d	0.36223736
137	0xbdd58093	-0.10424914
138	0xbea4f8e2	-0.32221133
139	0xbeb0917c	-0.34485996
140	0xbdf4a6c2	-0.11945869
141	0xbd6507e9	-0.055915747
142	0xbdcc54c0	-0.09977102
143	0xbecbf6e2	-0.39836794
144	0xbeaf29ac	-0.3421148
145	0xbe7a270a	-0.24428955
146	0x3e07f5c1	0.13277341
147	0x3d6d4bb4	0.057933524
148	0xbd94bdf2	-0.07262792
149	0x3e7d5a7d	0.2474155
150	0xbe365709	-0.17806639
151	0x3dae6076	0.08514492
152	0x3d902dc9	0.07039983
153	0xbe09b51a	-0.13447991
154	0xbe1d681a	-0.15371743
155	0xbd83cb1f	-0.06435227
156	0x3d1f7c09	0.03893665
157	0x3d881c2b	0.066459976
158	0x3dea9dd7	0.11455887
159	0xbda449bb	-0.080218755
160	0x3db6f980	0.08934307
161	0xbc2430dc	-0.010021415
162	0xbd5d2c57	-0.053997364
163	0xbd29dffd	-0.041473377
164	0x3e43c41c	0.19117779
165	0xbd7d0973	-0.06177659
166	0xbe3dd307	-0.18537532
167	0xbc7386ce	-0.014863683
168	0x3e3cd6f1	0.18441369
169	0xbd58bba7	-0.052913334
170	0xbc5677c5	-0.013090079
171	0x3be66968	0.0070316084
172	0xbd8ec7dc	-0.06971714
173	0x3d8fe3e7	0.07025891
174	0xbd83ef12	-0.064420834
175	0x3e0fd8e9	0.14047588
176	0x3e804959	0.2505596
177	0xbd1abff0	-0.037780702
178	0x3d7b55e4	0.06136121
179	0x3c034ef3	0.008014428
180	0xbc8cf5d3	-0.017207062
181	0xbe7116a5	-0.23543794
182	0xbd914ec6	-0.07095103
183	0x3d1153fb	0.03548048
184	0x3d89232e	0.06696163
185	0xbd611714	-0.05495365
186	0xbd8250e8	-0.06363088
187	0xbc441cfe	-0.011969803
188	0x3b7a5ba7	0.0038201602
189	0x3dd0ef23	0.10201862
190	0x3d89bdca	0.067256525
191	0xbcbe4d99	-0.02323036
192	0xbdf9e1ff	-0.122013085
193	0x3d7c6a3a	0.061624743
194	0x3dcd6c33	0.10030403
195	0x3d9d4d00	0.07680702
196	0xbd961099	-0.073273845
197	0x3e0e5cec	0.13902634
198	0xbc315062	-0.010822387
199	0x3d897908	0.06712538
200	0xbdaa87df	-0.083266966
201	0x3d9ce2b4	0.07660428
202	0xbb190e6e	-0.0023354548
203	0xbd262001	-0.040557865
204	0x3ddd26a2	0.10798384
205	0xbd8c3cd4	-0.068475395
206	0x3dc24e3c	0.09487578
207	0x3d93e37d	0.07221124
208	0xbee80a49	-0.45320347
209	0xbe5d8eed	-0.21636553
210	0xbdd1f395	-0.10251538
211	0xbd7644de	-0.06012427
212	0x3d848683	0.064709686
213	0xbd55c93f	-0.052193876
214	0x3e2c82ac	0.16846722
215	0x3b881d1a	0.00415386
216	0xbd1997a7	-0.037498143
217	0x3dceb5fe	0.10093306
218	0x3e058557	0.13039146
219	0x3d7cc4b4	0.06171103
220	0xbd50d6e5	-0.05098619
221	0xbc0bfbd7	-0.00854393
222	0xbdc8fc01	-0.09813691
223	0x3d8a4857	0.06752079
224	0xbe448d5d	-0.19194551
225	0x3d77dbb6	0.060512267
226	0x3e371879	0.1788043
227	0x3e968f80	0.29406357
228	0xbe992989	-0.299145
229	0x3e6ee34a	0.23328891
230	0x3f15fde9	0.5859056
231	0x3f1657ed	0.58727914
232	0xbe404d1d	-0.18779416
233	0x3e0543ca	0.1301414
234	0x3ee72951	0.4514871
235	0x3eb2c4c2	0.3491574
236	0x3e308a06	0.17240152
237	0xbe3c7886	-0.18405351
238	0x3e14650e	0.14491674
239	0x3f13550f	0.57551664
240	0xbe4cee49	-0.20012774
241	0x3d821a87	0.06352716
242	0xbe3a41c2	-0.18189147
243	0xbd4f8610	-0.05066496
244	0x3d9b2609	0.07575614
245	0xbd420e8e	-0.04737716
246	0x3e86ca02	0.26325995
247	0xbe59cf7d	-0.21270557
248	0xbea8f3c4	-0.32998478
249	0x3e3d8670	0.18508315
250	0x3e5ef39b	0.21772616
251	0x3d77831c	0.06042777
252	0xbb06f2b4	-0.002059144
253	0xbea27c6d	-0.31735554
254	0xbe25e22a	-0.16199556
255	0x3db6149b	0.08890649

_Solution__net.4.bias f4 [16]
0	0xbe3b65a9	-0.18300499
1	0x3da87603	0.08225634
2	0x3e700576	0.23439583
3	0xbc24012a	-0.010010043
4	0x3dba081a	0.090835765
5	0xbd0df47d	-0.03465699
6	0xbbf1f977	-0.007384475
7	0xbdd30e96	-0.103055164
8	0xbe63167f	-0.2217655
9	0x3c2c81b2	0.010528969
10	0x3d3d9fca	0.046294965
11	0xbc557ba1	-0.013029964
12	0x3e107289	0.14106192
13	0xbc174a95	-0.00923409
14	0xbc1059ac	-0.008810442
15	0xbe1098e1	-0.14120819

_Solution__net.6.weight f4 [8, 16]
0	0x3e4e5edf	0.20153378
1	0xbf19865e	-0.59970653
2	0xbe607ddb	-0.2192301
3	0x3d1e362f	0.038625892
4	0xbcada8b3	-0.021198606
5	0xbd44953a	-0.047993876
6	0xbe0fe918	-0.14053762
7	0xbe279969	-0.16367115
8	0x3ed7655b	0.42069516
9	0xbd00762b	-0.031362694
10	0x3ddbacfa	0.10726352
11	0xbe033a46	-0.12815198
12	0x3eba8dc8	0.36436296
13	0xbe8cc3dc	-0.2749318
14	0xbe524cba	-0.20537081
15	0xbed1b8f0	-0.4096141
16	0x3e6bc1c0	0.23023129
17	0x3e001b5c	0.12510437
18	0xbe65de16	-0.22448
19	0xbe2444a9	-0.16041817
20	0xbe0ed3f4	-0.13948041
21	0xbe78bf1d	-0.24291654
22	0x3e576bde	0.21037242
23	0x3f49a7ba	0.78771555
24	0xbc285051	-0.010273055
25	0xbdbfb2da	-0.09360285
26	0x3e26e257	0.1629728
27	0x3d01af7f	0.031661507
28	0xbf111031	-0.5666533
29	0x3d54255c	0.05179344
30	0x3e109755	0.14120229
31	0x3ed2ee1e	0.41197294
32	0xbda9d4e8	-0.08292562
33	0x3e970486	0.2949564
34	0x3ea8ed8c	0.32993734
35	0x3dc3a6bd	0.09553287
36	0xbd9e0cc5	-0.07717279
37	0xbd79d4a7	-0.060993817
38	0x3dff277c	0.12458703
39	0x3e868d74	0.26279795
40	0x3d24effd	0.040267933
41	0xbe290cc2	-0.16508773
42	0x3e9ab0ee	0.30213112
43	0xbe91be3c	-0.2846545
44	0xbe89070e	-0.26763195
45	0x3e352dfa	0.1769332
46	0x3d008bac	0.0313832
47	0xbe9dac97	-0.30795738
48	0x3e883899	0.2660568
49	0x3f0c7bae	0.5487622
50	0xbe5bd4a5	-0.21467836
51	0xbe4347c4	-0.19070345
52	0x3ec62075	0.38696638
53	0xbdd22b14	-0.10262123
54	0xbb30896c	-0.0026937379
55	0x3e587d13	0.21141462
56	0x3e81edb3	0.25376663
57	0xbec29f73	-0.38012275
58	0x3e0396ef	0.12850545
59	0x3eb5b39e	0.354886
60	0xbdd5a283	-0.10431387
61	0xbe673f88	-0.22582829
62	0xbe0d390b	-0.13791291
63	0xbc281af7	-0.010260335
64	0xbe449bd0	-0.19200063
65	0xbe627fe2	-0.22119096
66	0x3e1576e9	0.14596142
67	0xbb54b043	-0.0032453693
68	0x3ec7ec5c	0.39047515
69	0xbe2aae01	-0.1666794
70	0x3e9a2d56	0.30112714
71	0xbef0b098	-0.4700973
72	0xbdc2e3aa	-0.0951608
73	0x3d7706fc	0.060309395
74	0xbc8fa176	-0.017533045
75	0x3c9bfb59	0.01904075
76	0x3e836c84	0.25668728
77	0x3ea31fad	0.31860104
78	0x3e0c7e9c	0.13720173
79	0xbedeac63	-0.43490896
80	0x3e9ed30d	0.31020394
81	0x3e9009d5	0.281325
82	0xbea59835	-0.32342687
83	0x3e31b7ec	0.17355317
84	0x3e2958bf	0.1653776
85	0x3e90179f	0.2814302
86	0x3e38f307	0.18061458
87	0x3f4b48be	0.7940787
88	0x3e3a4888	0.18191731
89	0xbdb33e3c	-0.08752105
90	0x3d87f224	0.066379815
91	0x3ef16fd2	0.47155625
92	0xbe0f5d8f	-0.14000534
93	0x3e07c01c	0.13256878
94	0x3ea6ce39	0.3257921
95	0x3da5bdd8	0.080928504
96	0xbc42df68	-0.0118940845
97	0xbf229bdf	-0.6351909
98	0x3e602498	0.2188896
99	0x3e81aac1	0.25325587
100	0xbdc5ecc5	-0.09664301
101	0x3e9269e1	0.28596404
102	0x3e754f52	0.2395604
103	0xbd6d4513	-0.057927202
104	0x3ec147c7	0.37750074
105	0x3e00372d	0.12521048
106	0xbdfef2c1	-0.124486454
107	0xbec40fcb	-0.382933
108	0x3e90a84e	0.28253406
109	0x3e44e785	0.19228943
110	0x3dabd944	0.083910495
111	0xbed7a6a9	-0.4211934
112	0x3ea20359	0.3164318
113	0x3f0e7add	0.55656224
114	0xbe32ec31	-0.17472912
115	0x3e859b03	0.26094827
116	0xbe33329d	-0.17499776
117	0x3ea893c7	0.32925245
118	0xbe137774	-0.14401037
119	0xbe3511a5	-0.17682512
120	0xbdff4f47	-0.12466293
121	0xbd4e97f9	-0.0504379
122	0x3e3c99ba	0.18418017
123	0xbe0418e5	-0.12900122
124	0xbd8d9522	-0.069132105
125	0xbebfb127	-0.37439844
126	0xbb4a6813	-0.0030884787
127	0x3e4eb6c9	0.20186915

_Solution__net.6.bias f4 [8]
0	0x3e492e38	0.19646537
1	0x3dfe89f4	0.12428656
2	0xbecbbee3	-0.39794073
3	0xbcc47c41	-0.02398503
4	0xbc7623df	-0.015023201
5	0x3e9a3d93	0.30125102
6	0xbdf8899f	-0.12135624
7	0xbdebb194	-0.1150848

_Solution__net.8.weight f4 [4, 8]
0	0xbe0aef04	-0.1356774
1	0xbdcf1a1a	-0.101124
2	0x3f4091bc	0.75222373
3	0xbf0f9362	-0.56084263
4	0x3e7ea9af	0.24869417
5	0x3eed6cf3	0.46372184
6	0xbd521089	-0.0512853
7	0x3e89843f	0.26858708
8	0xbcec8d14	-0.028875865
9	0x3f086d21	0.5329152
10	0x3d4d75cf	0.05016118
11	0x3f257cab	0.64643353
12	0x3d4c223e	0.049837343
13	0x3f07d657	0.5306143
14	0xbf01f417	-0.50763077
15	0x3cd59f6b	0.026076993
16	0xbe2bdef2	-0.16784266
17	0x3f1a882c	0.6036403
18	0xbe7caba7	-0.24674855
19	0x3de1fe7c	0.11034867
20	0xbf37bf58	-0.7177634
21	0x3df56626	0.11982374
22	0xbf43cb99	-0.7648254
23	0x3f010792	0.50402176
24	0x3f3bf14e	0.73415077
25	0x3e5ad161	0.21368934
26	0xbe8c3eec	-0.27391756
27	0x3e846753	0.2586008
28	0xbf05f0dd	-0.52320653
29	0xbf30f013	-0.69116324
30	0x3cd2fb0b	0.025754472
31	0xbf28509a	-0.6574799

_Solution__net.8.bias f4 [4]
0	0xbe2531da	-0.16132298
1	0x3e03db32	0.12876585
2	0x3e5845b2	0.21120337
3	0x3eb373c0	0.35049248

_Solution__net.10.weight f4 [2, 4]
0	0x3f47aa5a	0.7799431
1	0x3f848969	1.0354434
2	0x3f78885d	0.97083074
3	0x3ed969ea	0.4246362
4	0xbf270685	-0.65244323
5	0xbd6f7e11	-0.058469836
6	0x3e1f443a	0.1555337
7	0x3fdc7a40	1.7224808

_Solution__net.10.bias f4 [2]
0	0x0054d300	7.789874e-39
1	0x81426400	-3.570392e-38
